…
578 - root_mean_squared_error: 256.1694 - val_loss: 2249538.5000 - val_mean_absolute_error: 335.7249 - val_mean_absolute_percentage_error: 30.0554 - val_mean_squared_error: 166632.4844 - val_root_mean_squared_error: 408.2064
Model: "model"
_________________________________________________________________
 Layer (type)                Output Shape              Param #   
=================================================================
 input_1 (InputLayer)        [(None, 27, 12, 3)]       0         
                                                                 
 zero_padding2d (ZeroPadding  (None, 27, 12, 32)       0         
 2D)                                                             
                                                                 
 resnet (Resnet)             (None, 27, 12, 32)        18712     
                                                                 
 resnet_1 (Resnet)           (None, 27, 12, 32)        18712     
                                                                 
 resnet_2 (Resnet)           (None, 27, 12, 32)        18712     
                                                                 
 zero_padding2d_1 (ZeroPaddi  (None, 27, 12, 64)       0         
 ng2D)                                                           
                                                                 
 resnet_3 (Resnet)           (None, 27, 12, 64)        74072     
                                                                 
 resnet_4 (Resnet)           (None, 27, 12, 64)        74072     
                                                                 
 resnet_5 (Resnet)           (None, 27, 12, 64)        74072     
                                                                 
 zero_padding2d_2 (ZeroPaddi  (None, 27, 12, 96)       0         
 ng2D)                                                           
                                                                 
 resnet_6 (Resnet)           (None, 27, 12, 96)        166296    
                                                                 
 resnet_7 (Resnet)           (None, 27, 12, 96)        166296    
                                                                 
 resnet_8 (Resnet)           (None, 27, 12, 96)        166296    
                                                                 
 flatten (Flatten)           (None, 31104)             0         
                                                                 
 dense (Dense)               (None, 2048)              63703040  
                                                                 
 dropout (Dropout)           (None, 2048)              0         
                                                                 
 dense_1 (Dense)             (None, 1024)              2098176   
                                                                 
 dense_2 (Dense)             (None, 1)                 1025      
                                                                 
=================================================================
Total params: 66,579,481
Trainable params: 66,578,509
Non-trainable params: 972
_________________________________________________________________
==================================================
loss:[… mae:[… mape:[… mse:[… rmse:[… 