…
/3 [==============================] - 2s 561ms/step - loss: 141034496.0000 - mean_absolute_error: 477.4213 - mean_absolute_percentage_error: 188940752.0000 - mean_squared_error: 336606.0000 - root_mean_squared_error: 580.1776
Model: "model"
_________________________________________________________________
Layer (type)                 Output Shape              Param #   
=================================================================
input_1 (InputLayer)         [(None, 27, 12, 3)]       0         
_________________________________________________________________
tf.compat.v1.pad (TFOpLambda (None, 27, 12, 32)        0         
_________________________________________________________________
resnet (Resnet)              (None, 27, 12, 32)        18712     
_________________________________________________________________
resnet_1 (Resnet)            (None, 27, 12, 32)        18712     
_________________________________________________________________
resnet_2 (Resnet)            (None, 27, 12, 32)        18712     
_________________________________________________________________
zero_padding2d (ZeroPadding2 (None, 27, 12, 64)        0         
_________________________________________________________________
resnet_3 (Resnet)            (None, 27, 12, 64)        74072     
_________________________________________________________________
resnet_4 (Resnet)            (None, 27, 12, 64)        74072     
_________________________________________________________________
resnet_5 (Resnet)            (None, 27, 12, 64)        74072     
_________________________________________________________________
zero_padding2d_1 (ZeroPaddin (None, 27, 12, 96)        0         
_________________________________________________________________
resnet_6 (Resnet)            (None, 27, 12, 96)        166296    
_________________________________________________________________
resnet_7 (Resnet)            (None, 27, 12, 96)        166296    
_________________________________________________________________
resnet_8 (Resnet)            (None, 27, 12, 96)        166296    
_________________________________________________________________
flatten (Flatten)            (None, 31104)             0         
_________________________________________________________________
dense (Dense)                (None, 2048)              63703040  
_________________________________________________________________
dropout (Dropout)            (None, 2048)              0         
_________________________________________________________________
dense_1 (Dense)              (None, 1024)              2098176   
_________________________________________________________________
dense_2 (Dense)              (None, 1)                 1025      
=================================================================
Total params: 66,579,481
Trainable params: 66,578,509
Non-trainable params: 972
_________________________________________________________________
==================================================
loss:[… mae:[… mape:[… mse:[… rmse:[… 